models/100h,3layer.pt (torch, 838772 bytes, 14 tensors)

weight_ih_l0 f4 [400, 7]
000000 5e 3f 21 3f fb 5d ed 3f 7d ee b5 3f 2f eb 86 3f
       0.62987316 1.8544306 1.4213406 1.0540522
000010 26 ee 9e 3f 17 72 88 3f da bb c2 3f 9a 39 18 3e
       1.2416427 1.0659817 1.5213578 0.14865723
000020 18 c3 15 bf 9b 74 c6 be b0 f4 3a 3e e9 a5 c7 3e
       -0.58500814 -0.38760838 0.18257403 0.38993767
000030 f9 1f 3f 3e b0 e6 3b 3f 4c 61 37 3f 86 0d 7e 3c
       0.1866454 0.73398876 0.7163284 0.015506154
000040 77 ef 9f 3e 6c ec 0c 3e 72 dd 7d be 42 0a 8f 3d
       0.31237385 0.13762063 -0.24791506 0.069843784
000050 b4 14 b8 3f de 09 fc 3f 7a 85 06 40 78 fd ad 3f
       1.4381318 1.9690511 2.1018968 1.3592978
000060 c2 b5 c2 3f 61 8d b8 3f f3 c6 5d 3f 12 75 19 40
       1.5211718 1.4418145 0.866317 2.3977704
000070 28 62 5d bf 1f 2a 90 bf 26 a9 a6 bf 19 95 22 bf
       -0.864779 -1.1262854 -1.302037 -0.63508755
000080 ca 9a 7e 3e 5c 3d 5d 3e 35 05 0c 3f 4c d6 6a be
       0.24863735 0.21605438 0.54695445 -0.2293331
000090 3f 49 6a bf fd e7 0a bf fd 4c a2 bf 13 e7 e2 be
       -0.91518015 -0.54260236 -1.2679745 -0.4431692
0000a0 67 0e e5 bd 93 03 07 3c a4 53 03 3f 54 2a d4 be
       -0.11184388 0.008240598 0.512995 -0.41438544
0000b0 f3 7d 53 3e dd 51 e8 3e b1 34 23 3f a3 9b 21 3f
       0.20653515 0.45374957 0.63752276 0.6312811
0000c0 8b 8f 89 3f 46 5a cd 3f b0 71 f0 3f fa f8 09 40
       1.0746931 1.6043174 1.8784695 2.1558213
0000d0 4b 44 25 40 cf d6 4e 40 b0 63 0c 40 8d 18 a1 3f
       2.5822933 3.2318609 2.1935844 1.2585617
0000e0 5c 13 54 bd a2 04 31 3f 31 6d 17 3f 55 d4 16 3f
       -0.051776275 0.69147694 0.5915099 0.5891774
0000f0 7b b9 08 bb 05 03 30 3f e6 2a 41 3f 28 21 5b bd
       -0.0020862508 0.6875461 0.7545608 -0.053498417
000100 3e 53 36 be 04 11 07 bf 88 6e b0 bf 02 3a d8 be
       -0.17805192 -0.5276034 -1.3783731 -0.42231756
000110 c3 c5 04 3f 25 46 9e 3e 0a db 83 3e 13 92 1e bf
       0.5186426 0.3091289 0.2575305 -0.6194164
000120 f0 d7 73 3e bf 73 e8 3e d9 f4 36 3f bd 4b c6 3e
       0.23812842 0.45400807 0.7146736 0.3872966
000130 aa 86 44 3f dc 1d f6 3f 12 55 f2 3f d2 58 50 3f
       0.7676798 1.9227862 1.8932211 0.8138553
000140 e6 37 6b 3f 45 68 85 3f 45 dc c0 3f 58 66 fd 3f
       0.9188217 1.0422446 1.5067221 1.9796858
000150 0f 36 1b 3f 8d 09 ac 3e 97 f6 0a 3e 6e de 24 3f
       0.6062936 0.33601037 0.13570629 0.644019
000160 8d 38 78 3f 12 77 2e 3f 95 04 61 3f f8 46 88 be
       0.9696129 0.68150437 0.87897617 -0.26616645
000170 6c 4c a3 bf 4b 0f 86 be 4e 44 f2 3e 9e 18 08 bf
       -1.2757697 -0.26183543 0.47317737 -0.5316256
000180 1c 60 25 bf 39 1f af 3e ba 1c b5 3f c3 c3 1c 40
       -0.64599776 0.34203508 1.4149392 2.4494483
000190 4e 50 1f 40 fd 1a 12 40 70 0f 12 40 f9 9b 19 40
       2.4892764 2.2828972 2.2821922 2.4001448
0001a0 20 ca 23 40 02 2c d5 3f 1d ca ff 3f 43 90 ec 3f
       2.5592117 1.6654055 1.9983555 1.8481525
0001b0 e7 71 d9 3f 7a a4 e5 3f 6c 0b cc 3f df 5c d0 3f
       1.6987885 1.7940819 1.5940986 1.6278342
0001c0 ce 00 c4 3f 7a 54 e3 3e 67 9b 83 3f 66 28 c2 3f
       1.5312746 0.44400388 1.02818 1.5168579
0001d0 8b ae 2e 3f 6e 5f 82 3f 7f c7 e9 3f c0 58 40 3f
       0.6823508 1.0185373 1.8264006 0.7513542
0001e0 b0 3d da 3b 38 3b 1a 3f 02 3b 22 3f 85 4d 83 3f
       0.0066601858 0.6024661 0.6337129 1.0258032
0001f0 90 de 14 3f 8f ad 81 3f f2 5c 90 bc 59 87 90 bc
       0.58152103 1.0131091 -0.017622445 -0.017642664
000200 68 c0 62 bf f9 3a 22 bf fe 83 63 bf 9a ad 8f bd
       -0.8857484 -0.63371235 -0.8887328 -0.07015534
000210 7d 5d 7a 3e 52 05 81 3f 82 90 2b 3f f3 5a d7 3d
       0.24449725 1.0079749 0.67017376 0.10515394
000220 22 8b c0 bc 85 df 88 3f 58 82 b1 3f 7b c9 cf 3f
       -0.023503844 1.0693213 1.3867903 1.6233362
000230 9b cb d9 be f1 31 86 3f a2 bf f7 3e 58 a1 42 3e
       -0.4253815 1.0483991 0.48388392 0.1900686
000240 31 df 6a 3e dc 1b 05 be 19 4c 82 3e 64 cf 83 3f
       0.22936703 -0.12998909 0.25448683 1.0297666
000250 2b 46 80 3f 49 ff ae 3d 24 db 18 3e 27 09 32 3f
       1.0021414 0.085447855 0.14927346 0.69545215
000260 88 53 fc 3e bc 63 aa 3f 9c 4c 1b 3f 56 bc b8 be
       0.4928248 1.3311687 0.6066377 -0.3608119
000270 bb 4e 3e 3e 96 2c 1e 3f 57 df 7b 3f 9e 2c 1c 3f
       0.18584721 0.6178678 0.98387665 0.6100558
000280 5a e4 7e 3f 24 a3 29 bf 14 73 91 bf 4b a7 59 bf
       0.99567187 -0.6626456 -1.1363244 -0.85020894
000290 53 81 31 bf dc 8b ef be f7 ee 17 bf 72 52 0a be
       -0.6933796 -0.46786392 -0.59349006 -0.13508013
0002a0 33 e6 bf 3f 0b 9d b0 3f f0 40 1f 3f 12 62 f4 3e
       1.4992126 1.3797926 0.6220846 0.47731072
0002b0 03 7b af 3f 03 53 96 3f c2 19 e0 3f 2f 55 03 3d
       1.3709415 1.1744083 1.7507861 0.03206366
0002c0 b9 7c 21 bf 27 ce b3 bf 64 b4 87 bf 6f 8d 6f bf
       -0.63080937 -1.4047288 -1.0601926 -0.93575186
0002d0 77 06 a1 be e1 0c d2 3e 41 3e b0 3f 1d 0c bb 3f
       -0.31450245 0.4102545 1.3768998 1.4613072
0002e0 df 23 89 3f 75 47 36 3f cf 1d eb 3f 7e 17 c2 3f
       1.0714072 0.71202785 1.8368472 1.5163419
0002f0 48 08 f9 3f 1c 86 10 40 6d 5d 83 3f f2 e4 8e 3f
       1.9455652 2.2581854 1.0262886 1.1163619
000300 94 fc ce 3f af c0 97 3f 42 f8 c4 3f 74 59 05 40
       1.6170831 1.1855677 1.5388262 2.0835848
000310 3a cf cc 3f f5 2b e9 3f 65 eb 1f 40 30 0d 09 40
       1.600074 1.821654 2.4987423 2.14143
000320 45 d9 48 40 90 67 52 40 1b 19 5b 40 d6 9f c0 3f
       3.138261 3.287571 3.4234073 1.5048778
000330 af e5 cf 3f f3 5a dd 3f f1 ee d2 3f bd 83 a5 3f
       1.6241969 1.729338 1.6479169 1.2930828
000340 06 63 7a 3f a1 fd 1a 40 93 c8 ae be 5f d6 71 3e
       0.9780735 2.4217303 -0.341374 0.23616932
000350 66 45 1e 3d 6e f8 70 be a8 9a ca be 90 4c f2 be
       0.038640402 -0.23532268 -0.39571118 -0.47324038
000360 a0 ac 96 bf d6 45 44 3e 00 75 8c 3f 66 95 26 3f
       -1.1771431 0.19167265 1.0973206 0.65071714
000370 28 ad 2f 3f d4 95 39 3f 9c d2 ea 3e fe 58 0c 3f
       0.6862359 0.72494245 0.45863807 0.5482329
000380 81 c1 bb 3d 1d 28 5f bf d3 20 29 be 04 22 2d 3e
       0.09167767 -0.87170583 -0.16516428 0.16907507
000390 fb 87 1d 3e 87 6b dd 3d e4 42 e9 3e 01 ca 86 bf
       0.15383904 0.10811525 0.45558846 -1.0530397
0003a0 49 d0 41 be 43 d8 81 bf da 6f 46 bf fc bf 15 bf
       -0.1892711 -1.0144123 -0.7751442 -0.5849607
0003b0 a4 38 8d bf c5 09 94 bf a6 86 03 40 03 2a 80 3f
       -1.103291 -1.1565481 2.0550933 1.0012821
0003c0 05 79 59 3f ac a1 ad 3f 92 93 2c 3f d5 0e 5a 3f
       0.84950286 1.3564963 0.67412674 0.8517888
0003d0 1c 38 c6 3f 83 2e 81 be 1d 34 b2 be 7d ce 68 3e
       1.5485873 -0.25230798 -0.34805384 0.22735019
0003e0 1c 08 b2 3e bc 5d f6 3e cc c1 d6 3e 04 d8 75 3e
       0.34771812 0.4811839 0.4194473 0.24008185
0003f0 d4 3c b8 3e 49 ed 83 3f 7f c9 66 3f a0 98 9f 3f
       0.35983908 1.0306789 0.9015121 1.2468452

weight_hh_l0 f4 [400, 100]
000000 f4 e7 de 3c 05 10 af 3d b2 4b 63 3d e0 13 a9 bc
       0.027210213 0.08547977 0.05549211 -0.02063936
000010 6f 1d b3 bd be ef 7e 3d 79 1c c4 3d 60 9e fb 3b
       -0.087458484 0.062240355 0.09575743 0.007678792
000020 a0 86 42 bb c6 a7 a3 bd 2d 83 c6 3d f8 00 84 bd
       -0.0029682294 -0.079909846 0.096929885 -0.06445497
000030 19 5b a9 3d f2 0b 43 3d 0a 3c 2c 3d 1a 36 9d bd
       0.082693286 0.047618814 0.042049445 -0.07676335
000040 8a 71 ab bd 50 5b 81 3b da 13 08 bd 94 45 dc bc
       -0.08371265 0.003947653 -0.033222057 -0.026888646
000050 60 04 3c bb 0c 21 c7 3c 2b c7 cb 3d a8 c5 69 3c
       -0.002868913 0.02430775 0.09950098 0.014268316
000060 97 14 56 bd cc d0 9d 3c 1d bb bb 3d 4d 94 70 bd
       -0.05226573 0.019264601 0.091665484 -0.05873518
000070 6f 3c bc bd 08 4e c7 3c 34 d2 05 bd c9 2f c3 3d
       -0.09191214 0.0243292 -0.03267117 0.09530599
000080 18 96 b3 bc 25 b1 c4 bd a2 b7 90 bd 76 dc 95 bd
       -0.021922156 -0.096041 -0.07066275 -0.0731744
000090 e9 40 9a 3d 4b 0b bf 3d f0 67 a1 bd e7 11 a4 3d
       0.07531912 0.09328326 -0.07881153 0.08011227
0000a0 b0 7b 23 bc 26 18 0e 3d c7 30 22 bd d3 e9 a6 bd
       -0.00997822 0.034691 -0.0395973 -0.08150067
0000b0 85 cf ac 3d 30 5b cb bb 0a cd ba bd 1e dc 7f 3d
       0.08438019 -0.0062059388 -0.09121139 0.06246578
0000c0 e7 08 be bd 56 7a 6c 3d 16 f3 56 3d 34 4e 91 3c
       -0.09279042 0.057733856 0.05247792 0.017737485
0000d0 a8 fe a9 3c 4d c6 85 bd b3 22 a9 3d 00 39 02 bb
       0.020751312 -0.065319635 0.082585715 -0.00198704
0000e0 88 9c c7 bd 18 32 37 bc 28 8c 82 3c 94 cc 94 3c
       -0.09746653 -0.011181377 0.015935972 0.018163957
0000f0 37 4a ba bd bf 8a bc bd 40 c3 ae bd 9a 79 35 bd
       -0.090961866 -0.09206151 -0.08533335 -0.04430542
000100 43 8e 8d bd 9b 1e ba 3d 4e 49 85 bd 02 12 6e 3d
       -0.069119 0.09087869 -0.065081224 0.058122642
000110 a8 9a 72 3c ad 54 95 3d c6 70 30 3d 23 05 1f bd
       0.014807381 0.07291541 0.0430763 -0.038823258
000120 8e 05 0e 3d 12 30 70 3d 83 c0 78 bd 1d 7e 87 bd
       0.034673266 0.058639593 -0.06073047 -0.06615851
000130 23 eb af 3d 0d 3d c6 3d 43 1d 6c bd ed 49 8e bd
       0.08589771 0.09679613 -0.057645094 -0.06947694
000140 d4 b6 a4 bc 43 18 c4 3d 50 26 40 3c f0 33 55 bc
       -0.02010671 0.0957494 0.011727884 -0.013012871
000150 92 5d 26 3d d4 eb dc bc c0 cd 3a bc 17 e0 33 bd
       0.04061658 -0.02696792 -0.011401594 -0.04391488
000160 07 e0 8b 3d 00 40 f1 b8 b2 ef b4 bd ff 7f 8e 3d
       0.06829839 -0.000115036964 -0.08834781 0.06958007
000170 c0 f3 a3 3c 28 c8 86 bd 28 9e ba bd 07 fb c8 bd
       0.02001369 -0.065811455 -0.09112197 -0.09813505
000180 af e3 b7 3d 90 e1 76 bd 9a e8 61 bd 88 a4 ab bc
       0.08978974 -0.060273707 -0.055153467 -0.020952478
000190 da b1 32 3d 80 9d 45 ba 47 87 54 bd 32 a2 c8 bd
       0.043626644 -0.0007538423 -0.051886823 -0.09796561
0001a0 60 24 aa bc 66 e1 7c 3d 74 53 f4 3c 18 83 9e bc
       -0.020769298 0.061738394 0.02982495 -0.01934962
0001b0 0c 6f f8 3c e0 fb e8 bc f7 b2 c3 3d ed 5e 2b bd
       0.030326389 -0.028440416 0.09555619 -0.041838575
0001c0 d1 5b 90 3d a0 13 36 bb da a4 52 3d f6 9b 45 3d
       0.070487626 -0.0027782694 0.051426746 0.04824444
0001d0 47 a5 2d bd db 9a be 3d 0f 7c c9 bd 5a 2e 78 bd
       -0.04239395 0.0930688 -0.098381154 -0.06059108
0001e0 c7 34 c9 3d 39 d2 c8 3d 53 9d 9f bd 90 70 61 bd
       0.098245196 0.09805722 -0.07793679 -0.05503899
0001f0 00 a9 08 bb aa bd 8c bd d4 d1 e3 bc b6 91 7d 3d
       -0.0020852685 -0.06872113 -0.027810015 0.06190654
000200 c0 9c 7d bb c0 3d 56 3c 3a e8 9b bd d6 24 9a bd
       -0.0038698167 0.013076246 -0.07612653 -0.07526557
000210 14 57 86 bd 84 86 fe 3c 45 c2 a3 3d 00 bb 52 3a
       -0.065595776 0.031070001 0.07996038 0.00080387294
000220 eb c0 97 bd 13 2f 64 bd c0 a4 b1 bd b5 59 b7 3d
       -0.07409843 -0.055708956 -0.08674002 0.08952657
000230 77 05 67 bd 29 a5 9c 3d 8c 42 8e 3c c0 2c 49 3c
       -0.056401696 0.07648689 0.017365716 0.012278736
000240 95 91 9e bd 18 4b 48 3c 7e 84 36 3d c5 4c 94 3d
       -0.07742611 0.012224935 0.04455995 0.07241205
000250 50 35 8c bd 4c 83 ea bc 57 0e 30 bd 80 2a 26 ba
       -0.06846106 -0.02862706 -0.042982426 -0.00063387305
000260 90 85 6d bc d7 41 c9 bd 0f ac 89 3d d6 fc 80 bd
       -0.014497176 -0.09827011 0.06722271 -0.06298225
000270 2a fa 5e 3d 61 ab a9 3d f7 0d 74 bd 3e 98 0e 3d
       0.054437794 0.08284641 -0.05958363 0.03481316
000280 0c 8d 95 3c 79 cb a0 3d 37 17 31 bd 30 be 61 3c
       0.018255733 0.07851309 -0.04323503 0.013778254
000290 00 e1 95 3c 58 d6 8a bc 71 52 b3 3d 7a 78 68 bd
       0.018295765 -0.01694791 0.08755959 -0.05675552
0002a0 51 dc 80 3d df 54 8e 3d 57 87 c6 bd 80 9f 1f bc
       0.06292022 0.069497816 -0.09693783 -0.009742618
0002b0 3b 9c b1 bd a0 c9 fa bc 20 02 0b bd dd 3e c5 3d
       -0.08672377 -0.03061372 -0.033937573 0.09631131
0002c0 e8 f5 c1 bd 16 63 89 bd 8d 5b c2 3d f0 08 24 bc
       -0.09470731 -0.06708352 0.09490118 -0.0100118965
0002d0 07 d1 38 bd e8 73 50 bc 00 d0 0b bc 9b 03 ba 3d
       -0.04512122 -0.012722947 -0.008533478 0.09082719
0002e0 3e e5 8a bd b3 d5 43 bd 10 95 bc bd cc 05 02 bd
       -0.06782006 -0.04781122 -0.09208119 -0.03174381
0002f0 d8 f8 78 bc 5e 4e a6 bd e8 b6 d8 bc 5f a3 84 3d
       -0.015196048 -0.08120416 -0.026454404 0.06476473
000300 83 e6 60 bd 13 ac b1 bd 20 46 94 3c 60 f5 c6 3b
       -0.054907333 -0.08675399 0.018099844 0.0060717314
000310 c7 4d 73 bd 28 bd 45 bc 8c 58 a2 3c b7 2c cc 3d
       -0.059400346 -0.012069024 0.019817613 0.09969466
000320 98 8c a4 3c 82 18 6b 3d f4 47 be bc 7a a9 79 bd
       0.020086572 0.05739642 -0.02322767 -0.06095264
000330 6c 4f b2 3c 80 12 e7 bb 66 9a 31 3d 3f 6a c0 3d
       0.021766387 -0.007051766 0.043360136 0.09395265
000340 09 fa c1 3d e8 bf 58 3c fd 2a 69 bd e2 48 2b 3d
       0.094715185 0.013229348 -0.056925762 0.041817553
000350 07 04 88 3d 42 7b 79 3d 58 99 6f 3c 50 3d 4e 3c
       0.06641393 0.060908563 0.014623962 0.01258786
000360 d8 a3 cd bc f3 c7 8d bd 5a 59 33 3d ae 3e 21 3d
       -0.02510254 -0.06922903 0.043786384 0.039366417
000370 ba 19 05 3d 23 7d 92 bd 80 3a 95 bb 35 91 88 bd
       0.032495238 -0.07152774 -0.004554093 -0.06668321
000380 c7 6e 8d 3d 0a 8f 1a bd f8 c3 d8 bc c6 e8 4e 3d
       0.06905895 -0.03773407 -0.026460633 0.05051496
000390 00 7a 01 bc 5e 44 38 3d 22 9c 5f 3d 4b 39 ba 3d
       -0.007902622 0.044987075 0.05459226 0.09092959
0003a0 04 e8 83 bd 68 08 03 3c 68 d2 45 3c 3d d5 1e bd
       -0.06440738 0.00799761 0.012074091 -0.03877758
0003b0 7e 88 a7 bd cb 95 9a bd 0a 6a c6 bd d8 e2 b3 bc
       -0.08180331 -0.07548102 -0.09688194 -0.021958753
0003c0 55 12 c5 3d 20 41 91 bc 10 57 b4 bd c3 25 82 3d
       0.09622637 -0.01773125 -0.08805668 0.06354859
0003d0 7b 6a 9a 3d 00 ce d7 b9 0c df bb bc 4c a2 c9 3c
       0.07539841 -0.00041161478 -0.022933505 0.024613522
0003e0 00 ed 25 ba 30 d7 7b 3c e4 64 f8 3c d9 bf 9d 3d
       -0.0006329566 0.015371129 0.030321546 0.07702608
0003f0 2c d3 c9 bc 00 65 f8 bb e6 0d 12 3d 00 45 64 3c
       -0.024636827 -0.0075803995 0.035657786 0.0139324665

bias_ih_l0 f4 [400]
000000 4a 8b 59 3f f7 c8 3c be 43 7f 8b 3e dc 95 c2 3f
       0.84978163 -0.18436037 0.2724553 1.5201983
000010 53 77 97 be d9 6c 82 be d1 ff 22 3e eb 9b f1 3f
       -0.29583225 -0.2547367 0.15917899 1.8875707
000020 f7 dc 4e bd 58 79 7d 3e ef 4b 59 be ad 08 ad 3f
       -0.050503697 0.2475332 -0.21220373 1.3518273
000030 4d ea e4 3e 77 d9 43 be 84 12 1a 40 aa a8 02 40
       0.44710007 -0.19125925 2.40738 2.0415444
000040 83 44 d2 3f 28 55 74 3e 08 31 75 be 46 e1 c6 3f
       1.6427158 0.2386061 -0.23944485 1.5537498
000050 f4 8d d3 bd 39 8d 10 3f 28 4a 5e 3e 80 22 5d bf
       -0.1032981 0.5646549 0.21707976 -0.8638077
000060 e5 01 7c 3f 19 c5 ea be 20 f8 89 3f ca fb f3 3f
       0.9844039 -0.458535 1.0778847 1.9061215
000070 80 bc 34 40 ff df ee 3f de b7 2c be a6 36 40 3f
       2.8240051 1.8662108 -0.16867015 0.75083387
000080 15 4c 03 bf f8 0b 60 bf f6 3b bc 3f dd 8a 07 be
       -0.51287967 -0.8751826 1.4705799 -0.13236566
000090 c5 0a 29 3f 0f bf 29 40 e6 87 0a 40 36 9b 39 bf
       0.6603206 2.6522863 2.1645446 -0.7250246
0000a0 b3 33 22 40 ec 90 0c be 0f 9f 8d 3f 94 fe 77 be
       2.5344055 -0.13727158 1.1064166 -0.24218208
0000b0 89 a6 e3 3f b6 7b 95 be 19 86 d6 3d e7 64 83 3e
       1.7785197 -0.29195946 0.10474796 0.2566292
0000c0 47 7f 14 3d 36 a6 03 3f b5 b8 09 40 59 21 4c bf
       0.036254194 0.5142549 2.1518986 -0.79738384
0000d0 91 46 ad 3f 59 bb 81 bf 63 44 ef 3f 06 83 71 bc
       1.353716 -1.0135299 1.8692745 -0.014740711
0000e0 e7 51 e6 3f b8 e8 7d be 23 7c 8d bf 96 4d 13 bd
       1.7993745 -0.24795806 -1.1053509 -0.035962664
0000f0 a2 46 4b bf 3c 45 a1 3f 1c ef ac bd 74 77 10 bf
       -0.7940465 1.2599254 -0.08444044 -0.5643227
000100 50 75 79 3e f2 1f 9d 3f 78 7d 91 be 06 37 4e be
       0.24361157 1.2275374 -0.28416038 -0.20138177
000110 54 63 60 3c 4a de 97 bf 18 11 81 bf 14 b6 c2 be
       0.013695557 -1.1864712 -1.0083342 -0.3802954
000120 7c 4b 1d 3f fa 11 57 be f2 8b 8a bd 98 09 05 3f
       0.61443305 -0.21002951 -0.06764974 0.51967764
000130 de cd 9d be 10 44 31 bf b7 c7 98 3d 3c a3 db 3b
       -0.30821127 -0.6924448 0.074599676 0.0067028087
000140 a1 8e fa 3f 3a 22 63 3f 27 78 ba be a4 77 51 bd
       1.9574777 0.887241 -0.36419794 -0.05113949
000150 1c 14 4f 3d 38 cf 24 40 f4 c6 eb 3e a8 c6 87 3e
       0.050556287 2.5751476 0.46050227 0.2651875
000160 9a e4 8f 3f 17 8b 9a 3f fb 80 15 3e 40 c4 22 bf
       1.1241639 1.2073697 0.14599983 -0.63580704
000170 82 80 35 3f 33 48 c0 be 26 bd 30 3e 1f e9 04 3e
       0.7089921 -0.37555084 0.17259654 0.12979554
000180 84 c2 65 be 8f 09 2f 3f 85 2e aa bc b3 22 04 bf
       -0.22437483 0.6837396 -0.020774135 -0.51615447
000190 c7 ca 66 bd 31 bc b1 3d e3 8d 2e bd b5 eb 86 bd
       -0.056345727 0.08678473 -0.042615782 -0.06587926
0001a0 80 e9 a2 3a 74 35 f2 3c 06 23 22 3d c8 1c 8a bc
       0.0012429208 0.029566504 0.039584182 -0.016859427
0001b0 f8 38 84 3c 74 62 c2 3c 9d fa b4 bd 54 0a 82 3c
       0.016140446 0.023728587 -0.08836863 0.015874065
0001c0 58 3a 69 bc dd a2 c2 bd d2 9c 31 3d 3d d5 a7 3d
       -0.014235102 -0.0950372 0.043362446 0.08194969
0001d0 60 5b a1 3b 40 fd e8 3a ac 6f 8b bd 3a bb 72 bd
       0.004924223 0.001777567 -0.06808409 -0.059260584
0001e0 80 bb a0 3b b3 37 1b bd 07 ed 5f bd e2 8e 46 3d
       0.0049051642 -0.037894916 -0.054669406 0.048476107
0001f0 de 99 5c 3d fc 5b f2 3c 32 17 0a 3d 5d 5f bb 3d
       0.053857677 0.029584877 0.033713527 0.091490485
000200 02 d5 51 3d 73 8e a1 bd c0 45 54 3c 2c c2 f3 3c
       0.05122853 -0.07888498 0.012956083 0.029755674
000210 08 f4 9c bc 32 6d 6c 3d 33 68 93 bd 3e b6 1d 3d
       -0.019159332 0.057721324 -0.07197609 0.038503878
000220 12 be 5a 3d c0 01 5e bb 94 dc c5 bc 20 af 9c 3b
       0.05340392 -0.0033875555 -0.024153031 0.0047816187
000230 0d f0 68 bd 00 25 9e 39 e3 68 6f bd f1 7a bd 3d
       -0.056869555 0.00030163676 -0.058449637 0.09251965
000240 17 1f 5e bd 18 0b 20 3c 99 94 9f 3d 88 81 b1 3c
       -0.05422887 0.00976827 0.07792015 0.02166821
000250 c7 17 ca 3d 05 a5 b7 3d 04 a9 dc 3c 40 cb 49 bc
       0.098678164 0.08967022 0.026936062 -0.012316525
000260 10 2c 67 bc 03 ef b2 3d 70 b1 c7 bd 1a 80 21 bd
       -0.014109626 0.08736994 -0.097506404 -0.039428808
000270 10 f1 69 3c 2c 04 fe 3c 61 04 ae 3d 10 04 c0 bd
       0.014278665 0.031007849 0.08496929 -0.09375775
000280 8a 19 1c bd fe 95 2a 3d e8 e3 22 bc e1 6b 9a 3d
       -0.038110293 0.04164695 -0.009942032 0.075401075
000290 c8 7a a2 bd 6d 89 8d bd 62 aa 22 3d 80 54 c9 3b
       -0.07933575 -0.069109775 0.03971327 0.0061441064
0002a0 4a 2e 18 bd c2 74 21 3d 4f e2 98 3d 66 7c 09 3d
       -0.03715352 0.03941799 0.0746504 0.0335659
0002b0 8d 91 36 bd 9d 7a 32 bd fd d4 bb bd 7a 5c 0a bd
       -0.0445724 -0.043573964 -0.09171484 -0.0337796
0002c0 d0 0c 32 bd ad f3 b7 3d a2 f6 09 3d 16 d8 79 3d
       -0.04346925 0.08982024 0.033682473 0.06099709
0002d0 00 00 d9 37 f4 fc 96 bc 97 7d 2c bd 80 56 b4 3c
       2.5868416e-05 -0.018431164 -0.04211196 0.022013903
0002e0 54 c0 ec 3c fa 10 48 bd 2c dc f6 bc a9 cb a9 3d
       0.028900303 -0.048844315 -0.030134283 0.08290798
0002f0 d8 2f ac bd da 2d 08 bd 2d 06 8c bd 48 2a a3 bc
       -0.08407563 -0.033246852 -0.068371154 -0.019917622
000300 d3 54 47 bd cb 5a c5 bd 90 2e 99 bd bf 0d c8 3d
       -0.04866488 -0.09636458 -0.07479584 0.09768247
000310 14 06 d7 3c 0a 63 7e 3d 82 2e 50 3d cd 7a bb 3d
       0.026248015 0.06210617 0.050825603 0.09154282
000320 07 d0 5d 3e 57 c5 ab be 4d 16 16 be f9 04 f6 3d
       0.21661387 -0.33548996 -0.14656945 0.12012667
000330 b9 7a 55 3e 3d 2b ce be 68 a7 f3 bd 66 62 b2 3e
       0.20847596 -0.40267363 -0.118971646 0.34840697
000340 40 3b 06 3f 69 45 9a 3e 84 83 78 be 1b 61 a6 3a
       0.5243416 0.3013108 -0.24268919 0.0012693735
000350 cf e3 79 3e 37 b3 b6 be fe dc d4 bc 00 68 3d be
       0.24403308 -0.35683605 -0.025984284 -0.18496704
000360 67 35 66 be 67 fd cd be 58 28 af bd e3 b5 e8 be
       -0.22481309 -0.40232393 -0.08552617 -0.4545127
000370 5c e7 c1 be 6d 59 90 bd 1d d6 9b 3e d6 d1 9c 3e
       -0.37871826 -0.070483066 0.30436793 0.30628842
000380 2f 8c 20 3b ca 72 cc bd 15 52 e2 bd 89 f1 43 be
       0.0024497618 -0.09982832 -0.11050812 -0.19135107
000390 5e 5a cf 3e 36 70 a8 be 8c 41 c4 bd 8b 95 97 be
       0.40498632 -0.3289811 -0.095828146 -0.2960628
0003a0 35 8d b7 be 91 89 3f 3e 81 0e c8 be d1 38 fe be
       -0.3584992 0.18704821 -0.39073566 -0.49652722
0003b0 0f af 11 bf 8c 87 d3 be 3d 04 62 be 31 30 8f 3e
       -0.56907743 -0.41314352 -0.2207193 0.27966455
0003c0 fe b7 35 bf 48 79 c5 3e 0f 23 4b 3e d9 da 65 be
       -0.70983875 0.38569093 0.19837593 -0.22446765
0003d0 a1 d7 cf be 54 83 99 be 85 66 37 3e d6 92 55 3e
       -0.405942 -0.29983008 0.17910202 0.20856795
0003e0 34 ce e4 be 27 74 0c 3c a2 1b a1 3e 8c c2 4c be
       -0.4468857 0.008572615 0.31466395 -0.19996089
0003f0 a8 0d 0f bf ec 59 ca be a4 72 75 be f9 f0 7f be
       -0.5588021 -0.3952173 -0.23969513 -0.24994268

bias_hh_l0 f4 [400]
000000 5c 1e 70 3f f2 33 1e be 1c 12 a0 3e 5e f7 c8 3f
       0.93796325 -0.15449503 0.31263816 1.570049
000010 4c 66 44 be f0 ee 9c be 8d 88 20 3e 61 1b ea 3f
       -0.19179648 -0.30651045 0.1567709 1.8289605
000020 a5 ae 6c bc 0a 2e 43 3e 2d 08 22 be 09 2f b6 3f
       -0.014445935 0.19060531 -0.15823431 1.4233104
000030 bf 2b e4 3e 41 59 9d be 16 82 17 40 19 1b f3 3f
       0.44564626 -0.30732158 2.3673148 1.8992645
000040 39 65 d0 3f 66 56 3f 3e 3c 4f 38 be ea 09 c8 3f
       1.6280891 0.18685302 -0.17998976 1.5628026
000050 e3 2f 51 bd 85 4b 39 3f 2c 3e 17 3e 64 16 69 bf
       -0.05107106 0.7238086 0.1476981 -0.9104979
000060 db 95 72 3f 4c 18 fa be fa bf 93 3f 6e d5 f6 3f
       0.9475991 -0.48846662 1.1542962 1.9283884
000070 68 3e 38 40 25 89 e9 3f 0f ad 53 be 12 b0 2a 3f
       2.878809 1.8244978 -0.20671485 0.6667491
000080 15 ba 1a bf 62 c3 6b bf 64 a0 a9 3f 0b 97 2d be
       -0.6044019 -0.92095006 1.3252072 -0.1695215
000090 2f 1d 20 3f 0b be 2f 40 58 75 0f 40 5e 35 28 bf
       0.6254453 2.7459743 2.241537 -0.6570643
0000a0 c3 9c 23 40 9e 3b aa bd 55 79 9b 3f bb 5c 7e be
       2.556443 -0.08312152 1.2146403 -0.24840061
0000b0 11 a3 cd 3f 6e b8 88 be e2 75 59 3d aa 32 cf 3d
       1.6065389 -0.2670321 0.053090937 0.10117085
0000c0 ee f6 a3 3c a1 d4 06 3f 0a bb 11 40 e7 87 6d bf
       0.020015206 0.52668196 2.277041 -0.92785496
0000d0 df 77 a4 3f bb 17 60 bf 95 c8 e2 3f db ec f7 3d
       1.2849082 -0.8753621 1.7717463 0.121057235
0000e0 77 cc e8 3f ae 94 05 be 81 c3 8a bf 8a 45 cc bd
       1.8187398 -0.13044998 -1.0840913 -0.09974201
0000f0 5c b2 21 bf ba 21 a7 3f b4 84 8a be 37 1b 19 bf
       -0.6316278 1.3057168 -0.2705437 -0.5980715
000100 1c a3 2b 3e 12 74 9c 3f f0 d6 dd be ae f5 69 bd
       0.1676144 1.2222922 -0.43328047 -0.057119064
000110 da da 49 3e 4c 10 83 bf 45 2a 7e bf 80 4c ac be
       0.19712391 -1.0239348 -0.9928325 -0.33652115
000120 a8 5e 07 3f d9 74 99 be 98 31 29 be 89 e8 0b 3f
       0.5287881 -0.2997196 -0.16522825 0.54651695
000130 3c 7f d9 be 19 f8 08 bf d2 27 65 3e 71 37 a7 39
       -0.42479885 -0.53503567 0.22378471 0.0003189403
000140 5b 4e f7 3f c0 97 61 3f b3 58 9d be b0 1b 3c bd
       1.9320787 0.8812218 -0.30731735 -0.045924842
000150 ae 70 6f bd 06 79 1f 40 a2 1f 18 3f b6 d1 8b 3e
       -0.05845707 2.4917617 0.5942327 0.27308434
000160 9d 5c 87 3f c7 1f a0 3f 6b c3 0b 3e 10 3d 0a bf
       1.0575138 1.2509698 0.13648765 -0.53999424
000170 86 e8 23 3f a9 a9 a5 be e0 bc 7a 3e d1 34 09 3e
       0.6402668 -0.32356003 0.24486113 0.13399054
000180 48 db 0b be c8 47 0c 3f 78 be 4a 3c 60 f9 1d bf
       -0.13657868 0.5479703 0.012374513 -0.6170864
000190 d8 24 eb bc 8f 14 c2 bd 4b 53 c6 3d 80 39 af 3b
       -0.028704092 -0.094765775 0.096838556 0.0053474307
0001a0 60 b4 14 3b 70 62 65 3c 80 8f 10 bc 22 0b 76 3d
       0.002269052 0.01400052 -0.008823276 0.06006921
0001b0 d0 c3 b6 3b 3f 1e c1 3d 80 01 ef 3b 86 21 68 3d
       0.005577542 0.09429597 0.00729388 0.056672595
0001c0 c0 4f 35 3c 59 e3 89 3d b0 fc 04 3c 62 ff b1 bd
       0.011066377 0.06732816 0.008116886 -0.086912885
0001d0 34 0c e6 3c c8 bc 98 bc cc 32 dc 3c c5 74 9e 3d
       0.02808199 -0.018644705 0.02687969 0.07737116
0001e0 6d de 1b bd 8c 66 80 3c 86 d5 05 bd c0 43 7a bb
       -0.03805392 0.015673898 -0.032674335 -0.0038187355
0001f0 06 fd 0a bd 8d bd 1a bd 92 c2 3c 3d 1a c7 a1 bd
       -0.03393271 -0.037778426 0.046083994 -0.07899304
000200 a0 6a f5 bc a8 e1 a0 3c 37 8c 4d bd 86 0d 93 bd
       -0.02995807 0.019638851 -0.050182547 -0.07180314
000210 d4 7b 03 bd d4 2b f2 3c 73 37 c9 bd 9a 55 2d bd
       -0.032100514 0.029561915 -0.09825029 -0.042317964
000220 d7 2c 81 3d 50 f7 0d 3c 71 ed 85 3d e6 5c 82 bd
       0.06307381 0.008664921 0.06539429 -0.06365375
000230 b8 ed 89 bc 6c cb de 3c 70 ea 5a 3c c0 be dd ba
       -0.016836986 0.027196608 0.013361558 -0.001691781
000240 a8 ec c9 bd 98 c8 25 3c 7b 13 be bd f5 08 8c bd
       -0.09859592 0.010118626 -0.09281059 -0.06837646
000250 87 eb 5d bd e8 42 9a bd 7c 4b 15 bd c2 6b ae bd
       -0.054179695 -0.075322926 -0.03644894 -0.08516647
000260 99 c7 c0 3d 0a dd 20 bd f8 a6 de bc f7 27 82 3d
       0.0941307 -0.0392733 -0.027179226 0.06355279
000270 90 08 02 3c 48 28 90 bc 46 e4 9d bd 00 70 a4 ba
       0.007936612 -0.017597333 -0.07709555 -0.0012545586
000280 14 6a b2 3c 13 9d ca bd 6c 13 11 bd 77 fb c9 3d
       0.021779098 -0.09893241 -0.035418913 0.09862416
000290 18 d0 90 bc 28 a7 5a 3c b8 8e bb 3c a8 ed 8a bd
       -0.017677352 0.013345517 0.022895202 -0.067836106
0002a0 37 c2 5d bd 20 4f eb bb cd 2e 8e bd d5 f7 91 bd
       -0.054140296 -0.0071810633 -0.0694252 -0.07127348
0002b0 90 e9 67 bd fe 12 56 3d 80 83 ca bd ad a9 86 bd
       -0.056619227 0.052264206 -0.09888363 -0.06575332
0002c0 0b 20 a8 bd cc 77 dc 3c 75 f7 86 3d 56 48 18 3d
       -0.08209237 0.026912592 0.065901674 0.03717836
0002d0 22 0c 9e bd a2 9f 13 3d 2b 2c b7 bd 5d a6 80 bd
       -0.07717158 0.03604091 -0.08943971 -0.06281731
0002e0 a0 ec 3a bd 93 a3 9a bd 0a 01 53 bd 80 c0 0f 3c
       -0.04563582 -0.075507306 -0.051514663 0.008773923
0002f0 40 27 a2 3a d0 31 ee bb 6a 9e 1f bd 01 db 81 3d
       0.0012371317 -0.0072691217 -0.038969435 0.063406
000300 e9 19 88 3d 1a b1 6c bd 4a e6 25 3d 51 01 a0 3d
       0.06645567 -0.057786085 0.040502824 0.07812751
000310 00 80 b2 bc 2f bf ae bd 00 8b c3 3b 58 ef 1c bc
       -0.02178955 -0.08532559 0.005967498 -0.009578548
000320 57 dd 45 3e e5 a8 8c be 63 c3 b3 bd 01 5f b4 3d
       0.19322716 -0.27472606 -0.087775014 0.08807183
000330 52 7d 8c 3e 2c 59 fd be 24 ee 5f be 1e d8 d4 3e
       0.27439362 -0.49482095 -0.21868187 0.41571134
000340 7e 4d b8 3e d5 45 a0 3e 4d 72 8b be 33 cb 4f bd
       0.35996622 0.31303278 -0.27235642 -0.050730895
000350 a6 c7 8b 3e b1 06 cf be 0c ff 53 bd be f9 42 be
       0.27300757 -0.40434793 -0.051756904 -0.19040582
000360 9e 55 84 be 03 95 d9 be 23 7e 0d be 7f f3 e2 be
       -0.2584657 -0.424965 -0.13817649 -0.44326398
000370 94 10 b9 be 07 9f 44 bc 52 90 02 3e 6f 84 7a 3e
       -0.3614546 -0.012000806 0.12750366 0.24464582
000380 49 10 cf 3d a0 ab 28 be 6a 36 d8 bc 88 36 e9 bd
       0.10110528 -0.1647172 -0.026393134 -0.11387354
000390 59 28 fb 3e 98 36 98 be b6 a7 25 be 0b 15 dc be
       0.4905422 -0.29729152 -0.16177258 -0.42984805
0003a0 2f 3f 95 be 23 6c 49 3e 58 18 54 be d6 d7 14 bf
       -0.29149768 0.19670157 -0.20712411 -0.5814184
0003b0 e1 3a 0f bf 20 43 79 be 95 91 27 be 45 12 48 3e
       -0.5594922 -0.24342012 -0.16364129 0.1953822
0003c0 10 93 2e bf 04 f2 c7 3e 65 18 41 3e d3 e2 8b be
       -0.6819315 0.3905183 0.18856962 -0.2732149
0003d0 89 05 a0 be 55 ef 83 be a6 6c 05 3e 76 bf a4 3e
       -0.31254223 -0.25768533 0.13029727 0.32177323
0003e0 44 76 9f be f3 b0 86 3d 08 c7 8f 3e 25 f9 79 be
       -0.31144917 0.06576719 0.28081536 -0.24411447
0003f0 1a e0 29 bf fc 9c d5 be ef 06 86 be 7a 5d 20 be
       -0.66357577 -0.41721332 -0.26177165 -0.15660658

weight_ih_l1 f4 [400, 100]
000000 04 32 03 bf d8 27 68 bf 60 45 cc 3f b3 bb 9b 3e
       -0.5124819 -0.90685797 1.5958672 0.3041664
000010 b5 13 0f bf 6f d9 a2 bf a9 ab 8f 3f e2 1a aa 3f
       -0.55889446 -1.2722605 1.1224262 1.3289454
000020 1d 1b 97 bf 05 47 28 40 4f 9e 72 3f fb c6 ce bf
       -1.1805149 2.6293347 0.9477281 -1.6154474
000030 c9 9e 0c 3f e2 92 32 bf 84 cf f4 be fd 9a c6 3e
       0.54929787 -0.69755375 -0.47814572 0.38790122
000040 ec df 02 bf 83 7a 38 bf 88 71 0d bf 6d 7c 21 c0
       -0.5112293 -0.7206194 -0.5525136 -2.5232193
000050 8a 80 3d 3f d5 75 87 be 6f ae 87 be c5 89 c3 bd
       0.7402426 -0.26457086 -0.2650027 -0.09547762
000060 b2 63 35 be 2b f8 87 3f 2f 92 0a bf b8 f6 23 be
       -0.17713812 1.062261 -0.5412931 -0.16012084
000070 0a ec 09 3f 6f a6 c3 bf be 01 e1 bf 5a bb 94 3e
       0.5387579 -1.5285167 -1.7578657 0.29049188
000080 d4 9d 31 3f 63 49 a7 bf 8a f7 83 be d6 d9 47 3f
       0.6938145 -1.3069271 -0.25774795 0.78066766
000090 0c 9a 50 3f ad dc b8 3e 6d dc ec 3e 04 82 ae bf
       0.81485057 0.36105862 0.46261922 -1.3633428
0000a0 7e 18 30 bf 9f ac 5c be 79 9e f6 bd d1 c4 56 3f
       -0.6878737 -0.21550225 -0.12041945 0.8389407
0000b0 6f 2e 8d bf 68 83 57 3f 74 0c 0c c0 ab f1 41 bf
       -1.1029795 0.84184885 -2.18826 -0.7575938
0000c0 d9 b4 d6 3e ac bb e5 3f 4a 40 2d 3d 43 78 a8 3e
       0.4193485 1.7947898 0.04229764 0.32904252
0000d0 95 ef 2f bf 64 c8 a4 3f c8 c8 d9 3c 99 4c 93 bf
       -0.6872495 1.2873654 0.026584998 -1.1507751
0000e0 f8 8e ec bf be 3b 45 3f 19 e5 6d bf 36 56 10 3f
       -1.8481131 0.77044284 -0.929277 0.5638155
0000f0 dc 39 0a bf cb 82 41 3c 9a 86 95 bf 7c 0a 48 3f
       -0.53994536 0.011810969 -1.1681702 0.78141
000100 7f fd 07 3e 17 34 16 3f 5c f9 ac 3f cf ab 91 3f
       0.13280295 0.5867323 1.3513598 1.1380557
000110 72 d2 68 3d 83 56 c3 be 5f 63 95 3f c6 b4 f5 bf
       0.05684132 -0.3815194 1.1670951 -1.9195793
000120 b2 dd 69 3f fd c9 63 be 92 cd 5e bc 73 78 17 3f
       0.91353905 -0.22245021 -0.0135988165 0.59168166
000130 c9 2e 97 3e 4f 2d 5d bf 19 a3 fc bd 4f b0 9a 3e
       0.29527882 -0.8639726 -0.12335796 0.30212638
000140 8f e6 8c 3f 52 fb 55 3e d1 6f a3 bf 70 ba a4 be
       1.1007861 0.20896652 -1.2768499 -0.3217349
000150 ba ac 91 3d 3b 53 ee be 5a d8 8b 3e 04 e7 1e c0
       0.07113023 -0.46547875 0.273135 -2.48285
000160 13 b5 47 3f 8b 0f 8c bf 81 d4 82 3f 16 6e aa 3e
       0.7801067 -1.0942243 1.0221101 0.33287114
000170 87 c1 18 3f 53 99 aa 3f 37 9d 29 3f 6f fe fd 3e
       0.596703 1.3328041 0.66255516 0.4960818
000180 be 40 8e bf 95 a9 70 bf 3b db 7c 3f b1 26 95 3f
       -1.1113508 -0.9400876 0.9877202 1.1652433
000190 08 6d c8 be 28 ee 8a bc f3 46 93 3d 2b 35 e8 3e
       -0.39145684 -0.016959265 0.07191267 0.45353064
0001a0 3e 63 03 bd ff 8d 3d 3f 67 4d 9b 3e 37 5d 1e be
       -0.032077067 0.74044794 0.3033249 -0.15465246
0001b0 49 eb 81 3e b0 10 b5 bf 62 91 36 3e 0d ac bc 3f
       0.2537482 -1.4145718 0.17828897 1.4740006
0001c0 b1 fe 68 be f3 b3 18 bf 10 c7 eb 3f 3a f8 39 be
       -0.22753407 -0.5964958 1.8420124 -0.18161097
0001d0 f1 c5 ab bf e6 2f 87 3f 44 0b 22 3f 00 65 e4 3f
       -1.3419782 1.0561492 0.6329844 1.7843323
0001e0 90 62 81 3f 31 5d 2c 3e 48 1e 2c bf df d4 ac 3c
       1.0108204 0.16832425 -0.67233706 0.021097599
0001f0 e7 59 27 bf f6 64 31 bf 4e 6b e9 be e6 c2 10 c0
       -0.65371555 -0.6929468 -0.4558968 -2.2618957
000200 ab c2 5b bf a5 24 ae bf 99 60 e8 bd d4 28 4f be
       -0.85843915 -1.3604933 -0.113465495 -0.20230418
000210 29 2b 97 3d 14 17 80 bf c6 5f cd bf d6 77 99 be
       0.07381279 -1.0007043 -1.6044853 -0.2997424
000220 eb c5 b2 3d e2 4f f9 3e b4 cb ee bf 56 8f 8f bd
       0.08729156 0.48693758 -1.8655915 -0.07009761
000230 f5 c9 8b 3e b6 fa 0d be c5 91 82 bf bd dc 07 3e
       0.27302518 -0.1386517 -1.0200735 0.13267799
000240 93 55 54 bc 04 25 6c be 42 42 a5 3f 86 a7 c4 bf
       -0.012959856 -0.23060995 1.2910845 -1.5363624
000250 f3 fa 88 3f 3d 18 b5 bf 37 43 1e 3f 3c bd 67 be
       1.0701584 -1.4148022 0.6182131 -0.22630781
000260 4f 98 2e bf 0f 9a c0 be 79 f6 e0 be 4c 51 aa bc
       -0.68201154 -0.37617537 -0.43938044 -0.020790718
000270 8b 75 45 3f 0b 05 ed be 70 56 23 3e e0 c0 f8 3e
       0.7713248 -0.4629291 0.15950942 0.48584652
000280 61 44 32 3e 6b f4 d1 bf 8a cc b7 be 59 86 9b 3d
       0.17408897 -1.6402715 -0.35898238 0.07593984
000290 97 36 df be 8e 00 09 be 3d 13 3e 3e 4b 9e 85 bf
       -0.43596336 -0.13379118 0.18562026 -1.0438932
0002a0 83 57 26 be 08 73 a2 be 32 f0 85 be ae 94 2c 3f
       -0.1624432 -0.31728387 -0.26159817 0.6741437
0002b0 8f e6 c3 be 31 6d 95 bd c6 84 2d 3e 5b 1e 86 3e
       -0.3826184 -0.07296217 0.1694518 0.26195034
0002c0 91 28 95 be 6c 8e 39 bd ed a8 f0 3e 2f b8 92 3d
       -0.29132512 -0.04530184 0.4700388 0.071640365
0002d0 7c d8 dd bf c3 35 9b 3f f2 30 df 3c 94 1e a3 3e
       -1.7331691 1.2125782 0.027245019 0.31859267
0002e0 28 7d 04 3f 22 04 38 3f c6 b0 d2 bb fb 03 af 3f
       0.51753473 0.71881306 -0.0064297644 1.367309
0002f0 0c 2b d8 3e b9 2e 02 3f c6 f0 f9 be 6b 73 c5 be
       0.42220342 0.50852543 -0.48816508 -0.3856462
000300 6d 7b d1 be c7 11 46 3e a9 e0 ae bc 3c 90 99 3e
       -0.4091448 0.19342719 -0.02134736 0.29992855
000310 54 83 90 bf e2 4d 73 3e c7 d7 14 bf 30 6c ba be
       -1.1290078 0.23760179 -0.5814175 -0.36410666
000320 62 ee 63 bf 18 a2 8a 3f 54 2d ac 3f aa a8 bd be
       -0.8903562 1.0830717 1.3451333 -0.37042743
000330 48 2d 5e 3f 2c 1b 79 bf fc 02 f1 3f 55 f1 12 be
       0.86787844 -0.97307086 1.8829036 -0.14349873
000340 a5 09 7e bf a7 b9 da 3e a6 63 aa 3f 5e b1 3d bf
       -0.99233466 0.42719766 1.331166 -0.74098766
000350 4e b4 da bf 68 4a 3d bd 4a bc 43 be 87 61 dd 3e
       -1.7086275 -0.046213537 -0.19114795 0.4323847
000360 86 ca 7c be 6f a0 b2 3f 98 f7 4d bf 2d 5b 77 be
       -0.24686632 1.395521 -0.80455923 -0.24155875
000370 44 82 00 3e 01 22 8a bf 1d f1 50 c0 96 7e be bf
       0.12549692 -1.0791627 -3.2647164 -1.4882381
000380 18 74 08 bf 32 15 7d 3f 4e b6 78 bf 94 4c 81 bd
       -0.53302145 0.98860466 -0.97153175 -0.06313434
000390 90 96 22 3f a2 f8 89 be a3 7d 01 bf 8d 85 f6 3e
       0.6351099 -0.26947504 -0.5058233 0.48148766
0003a0 29 38 a1 3f 0a b3 47 be b8 d1 07 3e 43 7c 05 3f
       1.2595264 -0.19501892 0.13263595 0.52142733
0003b0 8a d3 f1 3e 1f 9e f8 3e 34 70 25 3f e7 8f 97 bf
       0.47231704 0.48558137 0.64624333 -1.184079
0003c0 29 f4 6a 3d 3f 8d c2 bf 3b 11 83 3d 32 f1 a5 3f
       0.057361756 -1.5199355 0.06399771 1.2964232
0003d0 9e b4 b5 3e a8 98 9c 3f dc 4c 28 bf 39 c9 62 bd
       0.35489362 1.2234087 -0.6574228 -0.055367682
0003e0 35 55 a2 3f a0 11 02 3f 8e 6a 51 be af f4 de 3f
       1.2682253 0.50808144 -0.20450804 1.7418422
0003f0 6a ec 11 3f 5b cf 54 3f 5b 27 51 3e 1b 0e 37 3f
       0.57001364 0.831289 0.20425169 0.715059

weight_hh_l1 f4 [400, 100]
000000 e8 68 0c 3c 2b 2b 80 3d 40 d2 b8 3c b9 4d a2 3d
       0.0085699335 0.06258234 0.022561193 0.07924981
000010 e9 54 91 3d 28 c1 5c 3c 97 e3 3f bd c0 d9 3e 3b
       0.070962735 0.013473786 -0.046847906 0.0029121488
000020 5d aa 33 bd be 9c 89 bd 00 7d dd b9 10 6b 0d 3c
       -0.043863643 -0.06719349 -0.00042245537 0.008631483
000030 77 9e 5b bd 5d 7c a6 3d a0 43 44 3b 3a d1 49 bd
       -0.05361792 0.08129189 0.0029947534 -0.0492718
000040 e5 1e 97 bd 82 75 b6 bd cd f7 8c 3d c2 d8 a7 bd
       -0.073789395 -0.089091316 0.06883202 -0.0819564
000050 0a 56 0e bd 4a d7 68 bd f7 8f 87 3d 5d 14 91 bd
       -0.034750022 -0.05684594 0.06619256 -0.07083962
000060 d0 4d 1e bd 0d 6a 34 bd a8 e5 a8 bd 12 65 4a 3d
       -0.038648427 -0.04404645 -0.082469285 0.049412794
000070 03 2a a0 bd ac 6f 8e 3c 4b be c5 bd 80 1c cc bb
       -0.07820513 0.017387234 -0.09655436 -0.0062289834
000080 a2 02 67 3d d0 09 24 bd 60 60 8c bb 20 ec ef bc
       0.056398995 -0.04004842 -0.0042839497 -0.029287398
000090 14 d8 ef 3c ad 17 bb bd b5 a9 ba 3d 40 51 cd 3a
       0.029277839 -0.09135375 0.091144 0.0015664473
0000a0 20 2a 87 bd 80 de d6 bb fa 5a 28 bd 0c 71 84 bd
       -0.065998316 -0.006557286 -0.041102387 -0.064668745
0000b0 12 97 03 3d fd 9f c1 3d b9 b4 c7 3d b9 87 89 3d
       0.032126494 0.094543435 0.09751267 0.0671534
0000c0 6a 31 40 bd 80 7f f6 3b f1 70 8d 3d 43 3c 91 bd
       -0.046922125 0.0075225234 0.069063075 -0.07091572
0000d0 ba 67 23 3d c7 9b 3e bd 2a 1b 59 bd 60 61 71 bb
       0.039893843 -0.04653528 -0.05300442 -0.0036831722
0000e0 99 14 83 3d 11 dd b3 3d 09 9b b9 3d 6c 63 b9 3c
       0.06400413 0.087823994 0.09062774 0.022630416
0000f0 2b a8 9d 3d cc 4a 97 bc 4d cd a3 bd 2d e1 82 3d
       0.07698091 -0.018468283 -0.079981424 0.06390605
000100 62 a3 43 3d 9c 80 01 bd e7 e7 1c bd c7 43 b6 3d
       0.047763236 -0.031616792 -0.038307097 0.08899646
000110 47 10 66 bd 0f 5a ad 3d 40 e6 71 3c 00 64 fe 3b
       -0.056167867 0.08464443 0.0147643685 0.007763386
000120 d5 1b a0 bd f5 0b c2 3d b3 5d 70 bd d4 cf cc 3c
       -0.078178085 0.09474937 -0.05868311 0.025001444
000130 3b 7e be 3d 42 71 b5 bd 01 5e a9 3d 60 bb e5 3b
       0.0930142 -0.08859493 0.08269883 0.007010862
000140 47 f1 bc bd 99 f3 c4 3d 72 72 c7 bd 84 91 ec 3c
       -0.092257075 0.09616775 -0.097386256 0.028877981
000150 70 e7 25 bc 49 31 8c 3d ca 2d 0b bd 4a 20 61 3d
       -0.01012598 0.06845338 -0.033979215 0.054962434
000160 ab c0 b5 3d 0e ae 2d 3d 4c 6d a9 3c 38 49 c6 bd
       0.08874639 0.04240232 0.020682 -0.09681934
000170 a3 87 33 bd 22 4f 77 3d 6e 83 75 3d 8e 9f 04 3d
       -0.043830525 0.0603782 0.059939794 0.032378726
000180 a8 f5 b3 3c 70 c9 35 3c 40 ae 0b 3b d9 cc c7 3d
       0.021967724 0.01109539 0.0021313578 0.097558685
000190 07 fa 8e 3d 0c 5a 8b bc 34 a8 10 bd d3 b4 94 bd
       0.06981283 -0.017010711 -0.03531666 -0.07261052
0001a0 ef 43 c9 3d 14 43 ab 3c c2 fd 69 3d e8 62 94 bc
       0.098274104 0.020906009 0.057126768 -0.018113568
0001b0 59 e3 b7 3d 75 e3 89 3d fc 5e e0 3c 14 c8 f2 bc
       0.0897891 0.06732837 0.027389042 -0.02963642
0001c0 4f e1 94 3d a2 29 05 3d d2 2f 84 bd 90 10 1c bd
       0.07269537 0.032510407 -0.064544335 -0.038101733
0001d0 de c2 46 3d 2a a4 71 3d ab e0 b4 bd 00 a0 92 3a
       0.048525684 0.05899445 -0.088319145 0.00111866
0001e0 3b 5e 8c 3d 35 54 8d 3d 7c 9d 0c bd b4 24 88 bd
       0.068539105 0.06900827 -0.034329876 -0.066476256
0001f0 c1 b0 8a 3d 34 75 d6 bc 00 f0 40 b9 38 ec cf bc
       0.067719944 -0.026178934 -0.00018399954 -0.025381193
000200 aa 97 1e bd 6d 14 bf bd 11 20 90 3d 66 d9 53 3d
       -0.038718857 -0.09330068 0.07037366 0.051721
000210 11 57 90 3d f3 c4 b7 3d 20 46 a4 bd 52 9e 7e 3d
       0.070478566 0.08973112 -0.08021188 0.062162705
000220 e8 06 88 bd fa 72 29 3d 78 ea b6 bd 10 df 92 bd
       -0.06641942 0.041369416 -0.0893144 -0.07171452
000230 b0 c3 94 3b 94 b3 e9 3c 7a 9b 98 bd 88 82 a5 3c
       0.0045399293 0.028528012 -0.0745153 0.020203844
000240 6a e4 31 3d 31 61 8e 3d 15 85 84 3d 20 31 1d bd
       0.043430723 0.069521315 0.06470696 -0.038376927
000250 22 15 28 3d 74 08 8b bc aa 98 ab bd e0 00 49 bd
       0.04103578 -0.016971804 -0.08378728 -0.0490731
000260 70 47 13 3c 08 a0 f3 bc 89 96 96 3d 06 89 17 3d
       0.0089892 -0.029739395 0.07352931 0.03699591
000270 20 b4 ba bb 9a 60 4e bd 5e bc 3a 3d 20 de d6 3b
       -0.005697742 -0.050385095 0.045589797 0.006557241
000280 1f 06 92 3d 0e f3 4c 3d 91 74 af 3d 2f 14 c1 3d
       0.07130074 0.050036483 0.08567155 0.09427678
000290 f4 a4 c5 bc 0c f9 95 3c c7 ac bf 3d ef 82 af 3d
       -0.024126507 0.018307231 0.093591265 0.085698955
0002a0 a6 fa 8c bd fe 8f 15 3d 12 d8 10 3d 80 e1 86 bd
       -0.06883745 0.036514275 0.03536231 -0.065859795
0002b0 3d dd 46 bd d9 35 80 3d c5 64 97 bd 91 08 be 3d
       -0.048550833 0.062602706 -0.07392267 0.09278978
0002c0 e9 bb 8c 3d 7b fa 89 3d aa 30 72 3d 13 56 9c 3d
       0.068717785 0.067372285 0.05912844 0.07633605
0002d0 13 2d 22 bd 68 cc e1 bc f8 a4 e3 bc 66 68 65 3d
       -0.039593767 -0.027563289 -0.027788624 0.056007765
0002e0 ba e7 66 bd 96 dd 06 bd 7e c2 54 3d 40 fe c8 bc
       -0.056373335 -0.032926165 0.051943295 -0.024535298
0002f0 1a d7 35 bd 4c e2 fd 3c 1a 7a 1c 3d d6 6f 9d bd
       -0.04439459 0.030991696 0.038202383 -0.07687347
000300 76 5b 93 bd cd 38 55 bd d2 ed 5d 3d 33 d9 49 bd
       -0.07195179 -0.052056123 0.05418188 -0.049279403
000310 12 eb a1 bd 49 d4 a3 3d 91 8d c9 3d 10 77 6f bd
       -0.07906164 0.079994746 0.09841455 -0.058463156
000320 a8 07 b6 3c fa 22 3f bd 9e c9 59 3d a2 ac 07 3d
       0.022220448 -0.046664216 0.053170793 0.03312362
000330 23 b8 4f bd 80 33 56 bc 80 39 30 bc 07 5d 90 3d
       -0.050712716 -0.013073802 -0.010755897 0.070489936
000340 17 e4 26 bd be 67 25 3d 27 86 54 bd 97 9e 21 bd
       -0.040744867 0.04038214 -0.05188575 -0.039457884
000350 2f 18 ac 3d 06 9e 58 3d 44 80 f0 3c 60 b5 98 3c
       0.0840305 0.052885078 0.029358037 0.018641174
000360 9c 8c d0 3c ad 4e c6 3d f7 e0 2a bd e2 43 51 3d
       0.025457673 0.09682975 -0.04171845 0.05109013
000370 83 35 8b 3d 32 a1 62 3d 28 49 61 3c ae 04 8b bd
       0.06797316 0.05532951 0.013750352 -0.06788002
000380 5a ff 94 bd dd 1c a7 3d c0 35 09 3b 60 b2 91 bb
       -0.07275267 0.08159802 0.0020936579 -0.004446313
000390 2c 05 a1 bc 5b 0d c6 3d f2 fa 4b 3d ec a8 af 3c
       -0.019655786 0.09670516 0.049799867 0.021442853
0003a0 82 f1 76 3d b4 52 b7 bc 79 84 9c 3d 99 f6 c0 3d
       0.060288914 -0.022378303 0.07642455 0.09422035
0003b0 d8 49 60 bc 00 5d 55 3b c7 c6 83 3d 85 8e b7 3d
       -0.013689481 0.0032556653 0.06434398 0.0896273
0003c0 53 82 5b bd ea 84 08 bd 79 cd af 3d 21 01 a8 3d
       -0.053591084 -0.03332988 0.08584113 0.0820334
0003d0 75 37 b1 3d 37 8b b9 3d 04 99 d9 3c e2 5d b2 bd
       0.08653156 0.09059756 0.026562221 -0.08709313
0003e0 5e 70 31 3d 23 1d 9a 3d 58 51 a2 bc c4 fa d0 3c
       0.043320052 0.07525089 -0.019814178 0.0255102
0003f0 a6 eb 95 bd 03 bc 2e bd 6f bb c1 3d 4a 21 16 3d
       -0.07320337 -0.04265977 0.09459578 0.03665284

bias_ih_l1 f4 [400]
000000 43 b9 13 40 bf 13 cd bd 0d 10 36 3f c1 52 bd be
       2.3081825 -0.10013532 0.7111824 -0.369772
000010 7d 71 90 3f 43 00 0a 3f 0f fc 80 3c 50 57 a8 bd
       1.1284634 0.5390665 0.01574519 -0.082197785
000020 1f 07 66 3f e3 9f 68 3f be 89 3d 3d 2e 9e 80 bd
       0.89854616 0.9086897 0.04627394 -0.062801704
000030 dd 27 14 40 56 e8 00 bf e7 d8 54 3f 5f 92 f6 3f
       2.314933 -0.50354517 0.83143467 1.9263419
000040 da 08 40 40 1d 16 30 3f b7 36 27 40 72 57 04 3f
       3.0005403 0.6878374 2.6127145 0.5169593
000050 b4 89 18 bf b3 19 d2 3e c9 c0 77 3e e4 02 6e 3d
       -0.5958512 0.41035232 0.24194635 0.058108225
000060 0a 29 14 be da 5e 82 be ca 79 53 3f 72 4d 40 bf
       -0.1446878 -0.2546299 0.8260771 -0.7511817
000070 07 99 95 bd f6 06 db bd fd cd fe 3e 25 ea 0c 3f
       -0.07304578 -0.10694687 0.49766532 0.55044776
000080 0f 72 03 bf 04 c4 9a 3f 10 d4 06 3f e5 97 2e 3f
       -0.51345915 1.2091069 0.5266733 0.6820052
000090 b9 90 03 3f 7e a4 02 bd 82 d0 0e 3f 6e 82 16 bf
       0.51392704 -0.031895153 0.5578691 -0.5879277
0000a0 66 20 66 3f a4 90 92 3f 81 ed b4 3f 6c 6f 18 3f
       0.89893186 1.1450391 1.413498 0.59545016
0000b0 21 c7 a2 3c 86 a8 57 3f 36 f8 d2 3f 11 87 5a 3f
       0.019870343 0.8424152 1.6481998 0.85362345
0000c0 23 d6 20 be bb 7f b0 be 17 14 81 3f a8 4a 07 3f
       -0.15706687 -0.3447245 1.0084256 0.5284829
0000d0 1f 5f 7c 3c 85 bb 53 bf 33 49 c9 be 81 e0 12 3f
       0.015403538 -0.8270801 -0.3931366 0.57373816
0000e0 88 2d 5f 3f 0f ce e7 3e e7 79 83 3e 0e 2f b9 3f
       0.8717885 0.45274398 0.25678942 1.4467485
0000f0 9b 05 0d 40 f1 95 5e 3e 75 b7 79 3f 62 99 03 3e
       2.2034671 0.21736886 0.9754556 0.1285148
000100 e5 20 cd 3e 1d 26 d6 3e 0f a0 97 bd c0 54 86 3f
       0.4006416 0.41825953 -0.07403576 1.0494614
000110 8f 39 ff be 13 4a 99 bd d9 b7 f1 3d 03 e5 50 3e
       -0.498486 -0.07484832 0.11802644 0.20399861
000120 71 53 53 3f 70 0f af 3d 2f 9d 81 be 33 bc 40 be
       0.82549196 0.08547866 -0.25315234 -0.18821792
000130 25 e1 a4 be f8 52 1e 3f d9 96 fa be 6f 56 14 3f
       -0.32203022 0.6184535 -0.48943213 0.5794439
000140 fc a0 ab 3f 04 dd 01 bf a0 e2 4b be 6e 5a 3e 3d
       1.3408504 -0.5072787 -0.1991067 0.04647296
000150 19 a0 d8 3f 9b fe be 3f 7c f9 42 3e d6 bb 05 bf
       1.6923858 1.492145 0.19040483 -0.5223974
000160 0b c8 f6 3f 95 fd e7 3e c5 88 cc 3e a7 9a 61 be
       1.9279798 0.45310655 0.39948097 -0.22031651
000170 bd 5d f3 bd 21 ef 57 3e 07 8a 42 bd 93 f7 7b be
       -0.118831135 0.21087314 -0.047494914 -0.24606161
000180 54 6c 82 3f 54 d8 c5 3e 16 e8 a2 3f 21 c0 1a bf
       1.0189309 0.38641608 1.2727077 -0.60449415
000190 26 2b 31 3d e2 5d 45 3d fd b9 77 bd 12 8d 30 3d
       0.04325404 0.048185237 -0.060480107 0.043103285
0001a0 c6 03 11 3d 3d f2 91 bd a4 0e 17 bd 36 43 ac bd
       0.03540399 -0.071262814 -0.036879197 -0.08411257
0001b0 1d 81 a9 3d 72 40 6f 3d 30 78 8e 3b 12 bc 74 3d
       0.082765795 0.05841107 0.0043478236 0.05974967
0001c0 cc f4 a8 3c 22 a4 37 3d d6 57 6f 3d bd e6 bf 3d
       0.02062454 0.044834264 0.058433376 0.09370182
0001d0 2c d8 c7 bc 17 d0 2f bd 28 67 2d bc 9e c3 78 3d
       -0.024395071 -0.04292306 -0.010583676 0.06073343
0001e0 72 d5 1f 3d ec f1 82 3c 4d 28 8b 3d ff 00 85 3d
       0.039021917 0.015984498 0.06794796 0.064943306
0001f0 68 dc 03 bc ba 31 99 bd e3 e0 a1 3d 1c c0 e2 3c
       -0.008048154 -0.07480188 0.07904222 0.027679496
000200 57 0a 3d bd ac 07 e1 bc 98 18 97 3c f0 24 52 bc
       -0.04615244 -0.027469479 0.018444344 -0.012826189
000210 30 ce 48 bc 70 13 4a bd 07 08 99 3d 95 20 83 bd
       -0.01225619 -0.049334943 0.07472234 -0.06402699
000220 52 b8 60 3d a5 32 9d 3d f3 4e 4f bd f5 fa b8 bd
       0.05486328 0.07675675 -0.0506124 -0.09032241
000230 6e 9b 85 bd 28 30 32 3c 50 c9 c5 bd a8 13 89 3c
       -0.065237865 0.010875739 -0.09657538 0.016733006
000240 78 27 92 bd 91 aa 82 3d e4 43 85 bd 3e 73 59 3d
       -0.07136434 0.06380189 -0.0650709 0.05308842
000250 87 b7 87 3d 12 e3 c3 bd ac 4a c1 3c 26 8f 93 bd
       0.06626802 -0.095647946 0.023595177 -0.07205038
000260 20 97 85 bc 8a 78 4d bd 49 87 b3 3d a8 e6 3b 3c
       -0.016307414 -0.050163783 0.08766038 0.011468567
000270 aa d2 70 bd a1 34 b0 3d 0f d1 b9 3d 80 c5 43 3a
       -0.058794655 0.08603788 0.09073078 0.00074680895
000280 90 a8 6a 3c 82 7d bb bd bd 0f 22 bd 97 05 c5 bd
       0.014322415 -0.09154798 -0.03956579 -0.09620207
000290 f8 58 bf bc a9 08 8a 3d 7d 49 c1 3d 16 7b 72 3d
       -0.023357853 0.06739933 0.09437845 0.059199415
0002a0 fb 0d 8e 3d a2 3b 3f 3d 39 5e c8 3d 5a 88 4e 3d
       0.0693626 0.04668773 0.097835965 0.050423004
0002b0 60 17 15 bd 0b c2 c6 bd 63 57 46 bd 0f 55 aa 3d
       -0.036399245 -0.097049795 -0.048423182 0.08317005
0002c0 68 a1 68 bc ca 05 38 bd f2 37 03 3d e5 a6 a5 3d
       -0.0141986385 -0.044927396 0.032035775 0.08088473
0002d0 20 91 65 bd 59 d7 94 3d b4 1e ed bc 82 0c 84 bd
       -0.056046605 0.07267637 -0.028945304 -0.06447698
0002e0 4a 1e 71 3d 70 57 81 bd c3 e6 8e bd f0 a3 67 bd
       0.058866777 -0.063155055 -0.06977608 -0.056552827
0002f0 64 d9 eb 3c c0 5c 26 bd 1d 66 94 bd d0 bb 8f 3b
       0.028790183 -0.040615797 -0.07246039 0.0043864027
000300 d9 ce ab 3d f6 68 89 bd 4c 5c ac 3c a0 f9 db 3b
       0.083890624 -0.06709473 0.021040104 0.006713107
000310 a0 6a 49 bb 35 4a ab bd 21 df b0 3d ff 84 ae 3d
       -0.003073372 -0.08363763 0.086363085 0.08521461
000320 d4 fc 46 bf 87 3b 69 3e a8 41 23 bf a2 57 2c bf
       -0.77729535 0.22776614 -0.6377206 -0.6732122
000330 66 3b 9a 3d c5 a9 87 be da 91 2a be fa b1 43 bf
       0.075308606 -0.2649671 -0.166572 -0.76443446
000340 77 67 63 be 13 f2 61 3e 9b 55 92 be 88 50 1c 3f
       -0.22207437 0.22065 -0.28580937 0.6106038
000350 0e 16 3d bf 92 3f fb 3e 9c 8b 08 be 4f df 5d 3f
       -0.7386178 0.49071938 -0.13334507 0.86668867
000360 b6 d5 7b bf 1d bd 48 3f b6 3b 72 3f 4c 92 d6 be
       -0.9837297 0.78413564 0.9462236 -0.4190849
000370 f7 6a fc be c9 e6 55 3f 1a 9f 0f be 5c e9 af be
       -0.49300358 0.83555275 -0.14025536 -0.34357727
000380 ab 40 47 bf 99 87 c3 be ea ef 1c 3f 4a 29 15 3f
       -0.7783305 -0.3818939 0.6130358 0.5826613
000390 cc 16 a5 3f ea 2c 2c 3d fe ed 28 be ea ae 07 be
       1.2897582 0.04203502 -0.16497037 -0.13250318
0003a0 8a da 14 3f 17 a5 04 3f bc 9a 05 3f b5 bc 98 be
       0.58145964 0.5181441 0.5218923 -0.29831472
0003b0 cf b7 87 bf f0 fc 53 3e e0 18 b4 3e 67 48 69 bf
       -1.0602969 0.20701957 0.35175228 -0.911261
0003c0 b9 e7 80 be d8 b7 77 3e 69 78 34 bf 4c ed 9c bc
       -0.2517679 0.24191225 -0.7049623 -0.01915612
0003d0 20 e9 ed be 7d 86 87 3d 0c 16 81 3f 7c 4d 43 bf
       -0.46466923 0.066174485 1.0084853 -0.76290107
0003e0 f0 d3 38 bf e8 0f da bd a5 97 3f 3e c8 f3 4b 3f
       -0.7219839 -0.10647565 0.18710192 0.79668856
0003f0 bc fc b9 3e a0 ce 92 3e f6 16 62 3e f1 dd c4 3e
       0.36325634 0.28673267 0.22079071 0.38450578
